…
 foolbox.gradient_estimators.CoordinateWiseGradientEstimator(0.1)\nfmodel = foolbox.models.ModelWithEstimatedGradients(fmodel, gradient_estimator)\n\nadversary = foolbox.adversarial.Adversarial(\n    fmodel, criterion, images[0], labels[0], distance=metric\n)\nattack(adversary)\n```", "```\nplt.imshow(a.image[0], cmap=\"gray\")\nplt.title(\"adversarial image\")\nplt.axis(\"off\")\nplt.show()\nprint(\"Model prediction:\", np.argmax(fmodel.predictions(adversary.image)))\n```", "```\nfrom abs_models import models\n\ntraditional_model = models.get_CNN()\n```", "```\nCNN(\n  (net): NN(\n    (conv_0): Conv2d(1, 20, kernel_size=(5, 5), stride=(1, 1))\n    (bn_0): BatchNorm2d(20, eps=1e-05, momentum=0.1, affine=True, track_running_stats=True)\n    (nl_0): ELU(alpha=1.0)\n    (conv_1): Conv2d(20, 70, kernel_size=(4, 4), stride=(2, 2))\n    (bn_1): BatchNorm2d(70, eps=1e-05, momentum=0.1, affine=True, track_running_stats=True)\n    (nl_1): ELU(alpha=1.0)\n    (conv_2): Conv2d(70, 256, kernel_size=(3, 3), stride=(2, 2))\n    (bn_2): BatchNorm2d(256, eps=1e-05, momentum=0.1, affine=True, track_running_stats=True)\n    (nl_2): ELU(alpha=1.0)\n    (conv_3): Conv2d(256, 10, kernel_size=(5, 5), stride=(1, 1))\n  )\n  (model): NN(\n    (conv_0): Conv2d(1, 20, kernel_size=(5, 5), stride=(1, 1))\n    (bn_0): BatchNorm2d(20, eps=1e-05, momentum=0.1, affine=True, track_running_stats=True)\n    (nl_0): ELU(alpha=1.0)\n    (conv_1): Conv2d(20, 70, kernel_size=(4, 4), stride=(2, 2))\n    (bn_1): BatchNorm2d(70, eps=1e-05, momentum=0.1, affine=True, track_running_stats=True)\n    (nl_1): ELU(alpha=1.0)\n    (conv_2): Conv2d(70, 256, kernel_size=(3, 3), stride=(2, 2))\n    (bn_2): BatchNorm2d(256, eps=1e-05, momentum=0.1, affine=True, track_running_stats=True)\n    (nl_2): ELU(alpha=1.0)\n    (conv_3): Conv2d(256, 10, kernel_size=(5, 5), stride=(1, 1))\n  )\n)\n```", "```\npreds, labels = predict_on_batch(traditional_model, batch, 5)\nprint(preds)\nprint(labels)\n```", "```\n[7, 9, 5, 3, 3]\n[7, 9, 5, 3, 3]\n```", "```\nif traditional_model.code_base == \"tensorflow\":\n    fmodel_traditional = foolbox.models.TensorFlowModel(\n        traditional_model.x_input,\n        traditional_model.pre_softmax,\n
…
